best_model.pt (torch, 2216 bytes, 4 tensors)

fc1.weight f4 [10, 2]
000000 56 7c 09 3e 1d 92 71 bf 8e ad 11 3c f9 9a f4 be
       0.13426337 -0.94363576 0.008891476 -0.47774485
000010 df 3c 21 3d 89 45 e1 3e 64 c2 2d 3c 02 87 61 be
       0.03936469 0.43998364 0.010605428 -0.22024158
000020 16 84 42 3d 79 49 88 3e cb 64 37 be 07 4b 7a bf
       0.04748925 0.26618555 -0.17909543 -0.9777073
000030 d8 8b d7 be 59 1a 68 3d 7c 76 d4 be d1 49 3b bc
       -0.4209888 0.056665752 -0.41496646 -0.011431173
000040 24 b1 61 be 30 0d c3 bd 18 4a 80 be 10 d1 e3 bd
       -0.2204023 -0.09524 -0.2505653 -0.1112386

fc1.bias f4 [10]
000000 44 4f 01 bf 7d 35 3e 40 54 ca 88 40 33 56 5b 40
       -0.50511575 2.9720147 4.2746983 3.4271362
000010 59 c5 1e c0 68 d0 a5 3b f2 68 ca be ff b1 5f 3d
       -2.4807951 0.0050602444 -0.39533192 0.05461311
000020 48 e2 ca bd 18 c9 a1 3d
       -0.09906441 0.07899684

out.weight f4 [3, 10]
000000 49 a9 4f bd 50 7f 79 be d7 95 40 bf e2 e9 6a bf
       -0.050698552 -0.24364972 -0.7522864 -0.91763127
000010 80 ff 06 3f 02 4d 67 3d 0f 12 2c 3b 6b 0c 11 3d
       0.5273361 0.056469925 0.002625588 0.035412233
000020 d0 ef da 3c 8c ef ce 3d 3e e0 cc bd f7 bc 87 be
       0.02672568 0.10104284 -0.10003708 -0.26511356
000030 ce e3 41 bf c4 f5 6b bf 4c 7a 06 3f db e3 d9 3d
       -0.7573823 -0.92171884 0.5253036 0.10639163
000040 30 cb 3d bb 12 f2 16 3d e4 3e 10 3e 06 87 4e 3e
       -0.002896022 0.03685195 0.14086491 0.20168695
000050 60 a1 a7 bd 88 27 a5 be 29 7d 44 bf 2f 20 5f bf
       -0.08185077 -0.32256722 -0.7675348 -0.87158483
000060 36 11 30 3f 9a 4e 79 be 40 26 66 3b bb 1d a0 bb
       0.6877626 -0.2434639 0.0035118014 -0.0048863566
000070 bf ad a0 be 8a c5 99 be
       -0.31382558 -0.30033523

out.bias f4 [3]
000000 c4 47 16 c0 17 a5 13 c0 57 09 16 c0
       -2.3481302 -2.3069513 -2.34432
