mountaincar_dql_14202.pt (torch, 2368 bytes, 4 tensors)

fc1.weight f4 [10, 2]
000000 56 7c 09 3e 1d 92 71 bf ea 30 d7 bd 06 79 ad be
       0.13426337 -0.94363576 -0.105073765 -0.33881396
000010 c9 b3 18 3d 3b 5a f2 3e 14 bd de 3b 02 52 3e be
       0.03728083 0.47334465 0.006797442 -0.18585971
000020 1c 48 6f 3d 38 ad 8d 3e cb 64 37 be 07 4b 7a bf
       0.05841838 0.27671218 -0.17909543 -0.9777073
000030 d8 8b d7 be 59 1a 68 3d 7c 76 d4 be d1 49 3b bc
       -0.4209888 0.056665752 -0.41496646 -0.011431173
000040 24 b1 61 be 30 0d c3 bd 18 4a 80 be 10 d1 e3 bd
       -0.2204023 -0.09524 -0.2505653 -0.1112386

fc1.bias f4 [10]
000000 44 4f 01 bf 72 b8 39 40 f1 1e 86 40 fb 04 56 40
       -0.50511575 2.9018826 4.191277 3.344054
000010 94 92 19 c0 68 d0 a5 3b f2 68 ca be ff b1 5f 3d
       -2.3995714 0.0050602444 -0.39533192 0.05461311
000020 48 e2 ca bd 18 c9 a1 3d
       -0.09906441 0.07899684

out.weight f4 [3, 10]
000000 49 a9 4f bd e7 cb ba be 0f 18 3d bf dc bd 66 bf
       -0.050698552 -0.3648369 -0.73864836 -0.9013345
000010 b4 63 36 3f 02 4d 67 3d 0f 12 2c 3b 6b 0c 11 3d
       0.71245885 0.056469925 0.002625588 0.035412233
000020 d0 ef da 3c 8c ef ce 3d 3e e0 cc bd c0 65 d1 be
       0.02672568 0.10104284 -0.10003708 -0.40897942
000030 76 63 41 bf af d2 61 bf b6 71 44 3f db e3 d9 3d
       -0.7554239 -0.882121 0.7673601 0.10639163
000040 30 cb 3d bb 12 f2 16 3d e4 3e 10 3e 06 87 4e 3e
       -0.002896022 0.03685195 0.14086491 0.20168695
000050 60 a1 a7 bd 81 57 b9 be ce a0 3c bf 80 4d 6a bf
       -0.08185077 -0.36199573 -0.7368287 -0.91524506
000060 29 ef 34 3f 9a 4e 79 be 40 26 66 3b bb 1d a0 bb
       0.7067743 -0.2434639 0.0035118014 -0.0048863566
000070 bf ad a0 be 8a c5 99 be
       -0.31382558 -0.30033523

out.bias f4 [3]
000000 ba c8 0e c0 13 19 0d c0 2f 37 0e c0
       -2.2310014 -2.2046554 -2.2221181
