mountaincar_dql_12615.pt (torch, 2368 bytes, 4 tensors)

fc1.weight f4 [10, 2]
00000000: 567c 093e 1d92 71bf 4bec 48be 8868 aabe
00000010: d1cb 623d bef3 fc3e 27c6 9b3c f264 2ebe
00000020: 3cda 993d e20e 933e cb64 37be 074b 7abf
00000030: d88b d7be 591a 683d 7c76 d4be d149 3bbc
00000040: 24b1 61be 300d c3bd 184a 80be 10d1 e3bd
0.13426337 -0.94363576 -0.19621389 -0.33282876 0.055370156 0.4940471 0.019015385 -0.17030695
0.07512328 0.28722292 -0.17909543 -0.9777073 -0.4209888 0.056665752 -0.41496646 -0.011431173
-0.2204023 -0.09524 -0.2505653 -0.1112386

fc1.bias f4 [10]
00000000: 444f 01bf 7206 3340 5595 8440 e7b3 5240
00000010: 1778 15c0 68d0 a53b f268 cabe ffb1 5f3d
00000020: 48e2 cabd 18c9 a13d
-0.50511575 2.7972684 4.143229 3.2922304 -2.3354547 0.0050602444 -0.39533192 0.05461311
-0.09906441 0.07899684

out.weight f4 [3, 10]
00000000: 49a9 4fbd 28ed 05bf 8deb 3bbf 5db7 67bf
00000010: 0d10 473f 024d 673d 0f12 2c3b 6b0c 113d
00000020: d0ef da3c 8cef ce3d 3ee0 ccbd 3938 efbe
00000030: 5fb4 3dbf ae4f 67bf b63a 4d3f dbe3 d93d
00000040: 30cb 3dbb 12f2 163d e43e 103e 0687 4e3e
00000050: 60a1 a7bd 83c0 e5be ee0d 3cbf 254a 6abf
00000060: 2baa 4a3f 9a4e 79be 4026 663b bb1d a0bb
00000070: bfad a0be 8ac5 99be
-0.050698552 -0.52314997 -0.73406297 -0.90514165 0.77758867 0.056469925 0.002625588 0.035412233
0.02672568 0.10104284 -0.10003708 -0.46722582 -0.7410335 -0.90355957 0.8016771 0.10639163
-0.002896022 0.03685195 0.14086491 0.20168695 -0.08185077 -0.44873437 -0.73458755 -0.91519386
0.79165906 -0.2434639 0.0035118014 -0.0048863566 -0.31382558 -0.30033523

out.bias f4 [3]
00000000: 2b71 0ac0 4099 08c0 632a 0ac0
-2.1631572 -2.1343536 -2.158837
