mountaincar_dql_11189.pt (torch, 2368 bytes, 4 tensors)

fc1.weight f4 [10, 2]
000000 56 7c 09 3e 1d 92 71 bf be e6 5f be da 04 93 be
       0.13426337 -0.94363576 -0.21865365 -0.2871464
000010 0c 30 88 3d 54 48 04 3f 1c 56 d6 3c 93 d5 1c be
       0.06649789 0.51672864 0.026164107 -0.15315847
000020 68 17 d7 3d 22 42 99 3e cb 64 37 be 07 4b 7a bf
       0.10502511 0.29933268 -0.17909543 -0.9777073
000030 7a b5 d6 be d7 44 8c 3d 7c 76 d4 be d1 49 3b bc
       -0.4193533 0.06849068 -0.41496646 -0.011431173
000040 24 b1 61 be 30 0d c3 bd 18 4a 80 be 10 d1 e3 bd
       -0.2204023 -0.09524 -0.2505653 -0.1112386

fc1.bias f4 [10]
000000 44 4f 01 bf ad 94 21 40 a0 9d 83 40 2f 7b 50 40
       -0.50511575 2.5246994 4.1129913 3.2575185
000010 fa 90 12 c0 68 d0 a5 3b 01 bb c4 be ff b1 5f 3d
       -2.2900987 0.0050602444 -0.38423923 0.05461311
000020 48 e2 ca bd 18 c9 a1 3d
       -0.09906441 0.07899684

out.weight f4 [3, 10]
000000 49 a9 4f bd 1e 63 e8 be 70 03 3d bf 59 3f 6b bf
       -0.050698552 -0.4538812 -0.7383337 -0.91893536
000010 56 26 5d 3f 02 4d 67 3d eb a8 cf 3a 6b 0c 11 3d
       0.8638662 0.056469925 0.0015843188 0.035412233
000020 d0 ef da 3c 8c ef ce 3d 3e e0 cc bd 75 8e e6 be
       0.02672568 0.10104284 -0.10003708 -0.4503056
000030 2e dc 3c bf ec 93 6f bf 0d 3b 5c 3f db e3 d9 3d
       -0.7377347 -0.93585086 0.86027604 0.10639163
000040 29 4d 8b bb 12 f2 16 3d e4 3e 10 3e 06 87 4e 3e
       -0.0042511416 0.03685195 0.14086491 0.20168695
000050 60 a1 a7 bd cf 62 f2 be de e7 3b bf 84 71 70 bf
       -0.08185077 -0.4734101 -0.73400676 -0.9392321
000060 74 77 5b 3f 9a 4e 79 be 62 a9 47 3b bb 1d a0 bb
       0.85729146 -0.2434639 0.003046595 -0.0048863566
000070 bf ad a0 be 8a c5 99 be
       -0.31382558 -0.30033523

out.bias f4 [3]
000000 54 8a 07 c0 8d 71 05 c0 69 fb 06 c0
       -2.1178179 -2.0850556 -2.1090949
