mountaincar_dql_12301.pt (torch, 2368 bytes, 4 tensors)

fc1.weight f4 [10, 2]
0.13426337 -0.94363576 -0.2161276 -0.31419063 0.056629475 0.5018907 0.019433638 -0.1639705
0.087894015 0.28778005 -0.17909543 -0.9777073 -0.4209888 0.056665752 -0.41496646 -0.011431173
-0.2204023 -0.09524 -0.2505653 -0.1112386
00000000: 567c 093e 1d92 71bf 8e50 5dbe 98dd a0be
00000010: 4ff4 673d e97b 003f 4b33 9f3c e2e7 27be
00000020: c701 b43d e857 933e cb64 37be 074b 7abf
00000030: d88b d7be 591a 683d 7c76 d4be d149 3bbc
00000040: 24b1 61be 300d c3bd 184a 80be 10d1 e3bd

fc1.bias f4 [10]
-0.50511575 2.6804044 4.1331534 3.2811606 -2.3246803 0.0050602444 -0.39533192 0.05461311
-0.09906441 0.07899684
00000000: 444f 01bf bf8b 2b40 cb42 8440 89fe 5140
00000010: 90c7 14c0 68d0 a53b f268 cabe ffb1 5f3d
00000020: 48e2 cabd 18c9 a13d

out.weight f4 [3, 10]
-0.050698552 -0.49909472 -0.7342137 -0.90348196 0.7983302 0.056469925 0.002625588 0.035412233
0.02672568 0.10104284 -0.10003708 -0.48520055 -0.74256814 -0.9092737 0.8288523 0.10639163
-0.002896022 0.03685195 0.14086491 0.20168695 -0.08185077 -0.49367654 -0.7330475 -0.91412896
0.79621375 -0.2434639 0.0035118014 -0.0048863566 -0.31382558 -0.30033523
00000000: 49a9 4fbd 5889 ffbe 6ef5 3bbf 984a 67bf
00000010: 5e5f 4c3f 024d 673d 0f12 2c3b 6b0c 113d
00000020: d0ef da3c 8cef ce3d 3ee0 ccbd 356c f8be
00000030: f218 3ebf 29c6 68bf aa2f 543f dbe3 d93d
00000040: 30cb 3dbb 12f2 163d e43e 103e 0687 4e3e
00000050: 60a1 a7bd 2cc3 fcbe 00a9 3bbf 5b04 6abf
00000060: aad4 4b3f 9a4e 79be 4026 663b bb1d a0bb
00000070: bfad a0be 8ac5 99be

out.bias f4 [3]
-2.1477528 -2.1241288 -2.1400073
00000000: c874 09c0 baf1 07c0 e1f5 08c0
