mountaincar_dql_11633.pt (torch, 2368 bytes, 4 tensors)

fc1.weight f4 [10, 2]
0	0x3e097c56	0.13426337
1	0xbf71921d	-0.94363576
2	0xbe2946da	-0.16530934
3	0xbe9c5850	-0.30536127
4	0x3d7fbf5c	0.062438354
5	0x3f00a224	0.50247407
6	0x3cc99245	0.02460588
7	0xbe27d343	-0.16389184
8	0x3dba2e02	0.090908065
9	0x3e957a74	0.29194987
10	0xbe3764cb	-0.17909543
11	0xbf7a4b07	-0.9777073
12	0xbed78bd8	-0.4209888
13	0x3d681a59	0.056665752
14	0xbed4767c	-0.41496646
15	0xbc3b49d1	-0.011431173
16	0xbe61b124	-0.2204023
17	0xbdc30d30	-0.09524
18	0xbe804a18	-0.2505653
19	0xbde3d110	-0.1112386

fc1.bias f4 [10]
0	0xbf014f44	-0.50511575
1	0x402a01fa	2.6563706
2	0x408434c2	4.13144
3	0x4051dc3b	3.2790668
4	0xc0145e15	-2.3182423
5	0x3ba5d068	0.0050602444
6	0xbeca68f2	-0.39533192
7	0x3d5fb1ff	0.05461311
8	0xbdcae248	-0.09906441
9	0x3da1c918	0.07899684

out.weight f4 [3, 10]
0	0xbd4fa949	-0.050698552
1	0xbefc9849	-0.49334934
2	0xbf3bbd90	-0.73336124
3	0xbf6a99c2	-0.91640866
4	0x3f4fd447	0.81183285
5	0x3d674d02	0.056469925
6	0x3b2c120f	0.002625588
7	0x3d110c6b	0.035412233
8	0x3cdaefd0	0.02672568
9	0x3dceef8c	0.10104284
10	0xbdcce03e	-0.10003708
11	0xbef17d43	-0.4716588
12	0xbf3d9c90	-0.7406702
13	0xbf68d4c4	-0.90949655
14	0x3f53ebdc	0.8278177
15	0x3dd9e3db	0.10639163
16	0xbb3dcb30	-0.002896022
17	0x3d16f212	0.03685195
18	0x3e103ee4	0.14086491
19	0x3e4e8706	0.20168695
20	0xbda7a160	-0.08185077
21	0xbef155b1	-0.4713569
22	0xbf3beca3	-0.73407954
23	0xbf6b2f17	-0.9186873
24	0x3f508164	0.81447434
25	0xbe794e9a	-0.2434639
26	0x3b662640	0.0035118014
27	0xbba01dbb	-0.0048863566
28	0xbea0adbf	-0.31382558
29	0xbe99c58a	-0.30033523

out.bias f4 [3]
0	0xc0094e61	-2.1454089
1	0xc0075ffb	-2.1152332
2	0xc008db05	-2.138368
