mountaincar_dql_14212.pt (torch, 2368 bytes, 4 tensors)

fc1.weight f4 [10, 2]
0.13426337 -0.94363576 -0.11574341 -0.304215 0.03607953 0.47477484 0.0057498403 -0.1843405
0.05755601 0.27626 -0.17909543 -0.9777073 -0.4209888 0.056665752 -0.41496646 -0.011431173
-0.2204023 -0.09524 -0.2505653 -0.1112386
00000000: 567c 093e 1d92 71bf e20a edbd 12c2 9bbe
00000010: 21c8 133d b015 f33e 2869 bc3b c2c3 3cbe
00000020: dabf 6b3d f371 8d3e cb64 37be 074b 7abf
00000030: d88b d7be 591a 683d 7c76 d4be d149 3bbc
00000040: 24b1 61be 300d c3bd 184a 80be 10d1 e3bd

fc1.bias f4 [10]
-0.50511575 2.9309013 4.19287 3.345776 -2.3993206 0.0050602444 -0.39533192 0.05461311
-0.09906441 0.07899684
00000000: 444f 01bf e393 3b40 fe2b 8640 3221 5640
00000010: 788e 19c0 68d0 a53b f268 cabe ffb1 5f3d
00000020: 48e2 cabd 18c9 a13d

out.weight f4 [3, 10]
-0.050698552 -0.38231164 -0.7404149 -0.9023057 0.7083498 0.056469925 0.002625588 0.035412233
0.02672568 0.10104284 -0.10003708 -0.4037545 -0.7555148 -0.87527126 0.7604193 0.10639163
-0.002896022 0.03685195 0.14086491 0.20168695 -0.08185077 -0.38106495 -0.7385168 -0.91656137
0.7029305 -0.2434639 0.0035118014 -0.0048863566 -0.31382558 -0.30033523
00000000: 49a9 4fbd 5abe c3be d58b 3dbf 82fd 66bf
00000010: 6a56 353f 024d 673d 0f12 2c3b 6b0c 113d
00000020: d0ef da3c 8cef ce3d 3ee0 ccbd e9b8 cebe
00000030: 6b69 41bf c711 60bf d7aa 423f dbe3 d93d
00000040: 30cb 3dbb 12f2 163d e43e 103e 0687 4e3e
00000050: 60a1 a7bd f21a c3be 700f 3dbf c4a3 6abf
00000060: 41f3 333f 9a4e 79be 4026 663b bb1d a0bb
00000070: bfad a0be 8ac5 99be

out.bias f4 [3]
-2.2342825 -2.2041936 -2.2254257
00000000: 7cfe 0ec0 8211 0dc0 606d 0ec0
